main/ml/model97.tflite (tflite, 12272 bytes, 5 tensors)

sequential_4/dense_13/BiasAdd/ReadVariableOp/resource f4 [64]
0.0 -0.0028758966 0.0 0.0010016582 0.0 -0.009807326 0.011721615 -0.02937705
0.0 0.028515447 -0.027477872 -0.029167792 0.028923972 0.02084053 -0.029236013 0.0
-0.0074595553 0.028926123 0.0 0.0 -0.0058262846 0.028670235 -0.028900564 0.0
-0.0071421023 0.028250499 -0.025313772 -0.00020695721 0.0 -0.009883686 0.0 -0.028272554
0.03436737 0.029227057 0.0 -0.027859123 0.0 -0.030104924 0.0 -0.004731397
0.026793597 0.029018762 -0.0047798455 -0.0024304378 0.0 -0.007683268 -0.012112211 -0.029136041
-0.01016424 -0.0053318404 0.023394167 -0.027808176 0.0001300264 0.0 -0.027940871 0.0013583816
0.027790627 -0.0051800227 -0.0073215244 0.0 -0.0039141253 -0.029164193 0.03261483 -0.008589507
00000000: 0000 0000 8a79 3cbb 0000 0000 124a 833a
00000010: 0000 0000 e8ae 20bc 040c 403c 24a8 f0bc
00000020: 0000 0000 3a99 e93c 4619 e1bc 4bf1 eebc
00000030: f7f1 ec3c c2b9 aa3c 5d80 efbc 0000 0000
00000040: 496f f4bb 7af6 ec3c 0000 0000 0000 0000
00000050: 6bea bebb d7dd ea3c e0c0 ecbc 0000 0000
00000060: 4c08 eabb 976d e73c d45e cfbc a702 59b9
00000070: 0000 0000 2fef 21bc 0000 0000 d89b e7bc
00000080: cdc4 0c3d 956d ef3c 0000 0000 d138 e4bc
00000090: 0000 0000 9a9e f6bc 0000 0000 d609 9bbb
000000a0: 3f7e db3c c1b8 ed3c 40a0 9cbb fb47 1fbb
000000b0: 0000 0000 ecc3 fbbb 4c72 46bc b5ae eebc
000000c0: ea87 26bc b8b6 aebb 20a5 bf3c f9cd e3bc
000000d0: b257 0839 0000 0000 41e4 e4bc b90b b23a
000000e0: 2ba9 e33c 2ebd a9bb 66e9 efbb 0000 0000
000000f0: 1042 80bb bfe9 eebc 2197 053d 01bb 0cbc

sequential_4/dense_12/BiasAdd/ReadVariableOp/resource f4 [128]
0.020023936 0.03937622 -0.005001636 -0.019870874 -0.0058468804 -0.015596282 0.003031175 -0.008170206
0.0 0.041080795 -0.0290058 0.0 -0.013916691 0.055851836 -0.026257286 -0.005635025
-0.013929465 -0.012419905 -0.029080478 -0.011528941 -0.023957208 -0.013970517 -0.028824946 0.0
0.03345059 0.027743358 -0.028854568 -0.038257238 -0.029627703 0.0 0.0 0.03463266
0.0 0.01417463 0.0 -0.02457984 0.0 0.0 0.027228393 0.030025242
0.0 -0.027756957 0.008739754 0.030771084 -0.017660998 0.044086438 -0.023239197 0.0
0.0 -0.0041872486 -0.0021217566 0.011545293 0.0 0.014155147 0.0 -0.021939818
0.011531311 0.016978385 -0.021513 0.009891987 -0.004988328 0.0 -0.030381044 0.027518408
-0.007884522 0.004406697 -0.023215542 0.031086726 0.02495806 -0.028877037 -0.0293721 0.0
-0.019987129 -0.034018047 0.0 0.0 0.012869368 0.01574381 0.017412297 -0.019678133
0.0 -0.0014419782 0.010141014 -0.0076536518 0.01970349 -0.0027150095 0.024968054 -0.008585777
-0.009904306 0.004579793 -0.008661144 0.0 -0.01759422 0.023665654 -0.029831067 -0.016806053
-0.015893696 -0.001969991 -0.00051440863 0.015931435 0.0 0.025042908 0.0 0.0037187657
0.025479533 0.0 0.021833587 0.0 0.0 0.020668322 -0.01621888 0.0
0.055291045 -0.0030148383 0.0 -0.022385418 -0.030217992 -0.024058225 -0.0015032146 -0.011635249
0.0 0.0 0.0 0.0 0.031886958 0.006526347 0.01960096 0.0
00000000: 3d09 a43c f648 213d c4e4 a3bb 3ec8 a2bc
00000010: 3097 bfbb 8c87 7fbc ada6 463b 54dc 05bc
00000020: 0000 0000 5644 283d 929d edbc 0000 0000
00000030: d502 64bc e5c4 643d 8519 d7bc 04a6 b8bb
00000040: 6938 64bc db7c 4bbc 2f3a eebc e2e3 3cbc
00000050: e841 c4bc 98e4 64bc 4b22 ecbc 0000 0000
00000060: 7c03 093d 0a46 e33c 6a60 ecbc 9fb3 1cbd
00000070: ccb5 f2bc 0000 0000 0000 0000 fada 0d3d
00000080: 0000 0000 b53c 683c 0000 0000 a95b c9bc
00000090: 0000 0000 0000 0000 140e df3c 7ff7 f53c
000000a0: 0000 0000 8f62 e3bc 2f31 0f3c a413 fc3c
000000b0: ccad 90bc fb93 343d 2160 bebc 0000 0000
000000c0: 0000 0000 3035 89bb 2b0d 0bbb 7828 3d3c
000000d0: 0000 0000 fdea 673c 0000 0000 22bb b3bc
000000e0: d3ed 3c3c 4116 8b3c 083c b0bc 0012 223c
000000f0: 2175 a3bb 0000 0000 abe1 f8bc 496e e13c
00000100: 152e 01bc 0e66 903b 852e bebc 97a9 fe3c
00000110: d874 cc3c 898f ecbc c29d f0bc 0000 0000
00000120: 0cbc a3bc 8256 0bbd 0000 0000 0000 0000
00000130: 0bda 523c 2af9 803c 3ca4 8e3c 0934 a1bc
00000140: 0000 0000 c200 bdba 7f26 263c 7ccb fabb
00000150: 3769 a13c 4dee 31bb ce89 cc3c 5cab 0cbc
00000160: ac45 22bc 1712 963b 79e7 0dbc 0000 0000
00000170: c121 90bc 79de c13c 4860 f4bc d9ac 89bc
00000180: 7f33 82bc f71a 01bb 61d9 06ba a482 823c
00000190: 0000 0000 c926 cd3c 0000 0000 89b6 733b
000001a0: 74ba d03c 0000 0000 5adc b23c 0000 0000
000001b0: 0000 0000 9d50 a93c 75dd 84bc 0000 0000
000001c0: dd78 623d 9894 45bb 0000 0000 a061 b7bc
000001d0: b98b f7bc c115 c5bc 8307 c5ba c5a1 3ebc
000001e0: 0000 0000 0000 0000 0000 0000 0000 0000
000001f0: e69b 023d f7da d53b 3192 a03c 0000 0000

sequential_4/dense_12/MatMul i1 [128, 8] scale=0.0018842838 zero_point=0
0.07725564 0.16581698 -0.18089125 -0.18277553 0.13378416 0.12624702 -0.17712268 -0.15639555
0.17335412 -0.099867046 0.20161837 0.047107097 0.0 -0.15451127 -0.2223455 0.20538694
-0.13755272 0.114941314 -0.041454244 -0.026379975 -0.18842839 -0.11117275 0.04333853 -0.09421419
-0.15451127 0.02449569 0.18089125 0.08856134 0.15451127 0.1055199 0.15827984 -0.18277553
0.14508985 0.10740418 0.011305703 -0.20727122 -0.0697185 -0.21480836 -0.2091555 -0.12624702
0.013189987 0.09232991 0.020727122 -0.0018842838 -0.16581698 -0.08290849 -0.09421419 -0.19031267
-0.116825595 -0.028264258 0.099867046 0.19596551 -0.14697415 -0.0056528514 -0.15074271 -0.20350266
-0.2091555 0.03391711 -0.09232991 0.047107097 -0.20538694 0.20727122 0.15262699 -0.118709885
0.17900696 -0.13001558 0.09044562 0.028264258 -0.10175133 -0.05275995 -0.20538694 -0.14885843
-0.1865441 0.1281313 -0.096098475 0.09232991 0.0 -0.20727122 -0.10363561 0.096098475
-0.17900696 0.13001558 0.10928846 0.030148542 0.026379975 0.050875664 0.0697185 -0.16958554
0.0 0.022611406 -0.032032825 -0.19973409 -0.10175133 -0.17712268 0.032032825 -0.013189987
-0.056528516 0.06406565 -0.17146984 0.16204841 -0.099867046 -0.05464423 0.16770126 -0.19973409
-0.19784981 0.10363561 0.15451127 0.21669264 -0.050875664 -0.1752384 0.06218137 0.13378416
0.011305703 0.07348707 -0.011305703 0.15074271 0.16204841 -0.030148542 -0.17900696 -0.16204841
0.047107097 -0.120594166 0.18089125 -0.15639555 -0.013189987 0.09421419 0.022611406 -0.05275995
0.16581698 0.08102421 -0.1281313 0.13001558 -0.17335412 -0.14508985 -0.1055199 -0.12436274
0.14885843 0.11117275 0.013189987 0.14132129 -0.03956996 -0.035801392 -0.07348707 0.16770126
0.026379975 -0.0018842838 0.12247845 0.1281313 0.022611406 -0.13189986 -0.15639555 -0.14508985
-0.075371355 -0.09232991 -0.047107097 0.047107097 0.060297083 0.07725564 -0.099867046 -0.10740418
-0.06594993 0.18277553 0.10363561 -0.032032825 -0.06594993 -0.09798276 0.11117275 0.11117275
0.2204612 0.120594166 0.075371355 0.037685677 -0.12624702 -0.05464423 0.096098475 -0.09421419
0.120594166 0.14320557 -0.19408123 0.139437 -0.12247845 -0.04333853 0.13001558 -0.037685677
0.050875664 -0.18842839 0.118709885 0.03391711 -0.14132129 -0.06406565 0.18089125 0.07348707
0.0037685677 0.028264258 -0.011305703 0.060297083 0.09421419 0.116825595 -0.0075371354 -0.11117275
-0.21669264 0.06218137 0.14697415 -0.08102421 -0.037685677 -0.13189986 0.050875664 0.15827984
0.16016413 -0.12624702 -0.10175133 -0.1639327 0.18277553 0.05464423 0.13378416 0.21480836
-0.19973409 0.12624702 -0.2110398 -0.15639555 0.18465982 0.11117275 0.08856134 0.03391711
-0.15262699 0.14885843 -0.08102421 -0.05464423 -0.09232991 0.1865441 0.10928846 -0.15639555
-0.19219695 -0.139437 0.04899138 -0.10363561 -0.09798276 0.12436274 0.18089125 0.10740418
-0.02449569 -0.13378416 -0.12624702 -0.05464423 -0.0075371354 0.013189987 -0.04333853 -0.20161837
-0.0056528514 -0.16958554 -0.10928846 0.20727122 0.17900696 0.015074271 0.14697415 0.18277553
00000000: 2958 a09f 4743 a2ad 5ccb 6b19 00ae 8a6d
00000010: b73d eaf2 9cc5 17ce ae0d 602f 5238 549f
00000020: 4d39 0692 db8e 91bd 0731 0bff a8d4 ce9b
00000030: c2f1 3568 b2fd b094 9112 cf19 936e 51c1
00000040: 5fbb 300f cae4 93b1 9d44 cd31 0092 c933
00000050: a145 3a10 0e1b 25a6 000c ef96 caa2 11f9
00000060: e222 a556 cbe3 5996 9737 5273 e5a3 2147
00000070: 0627 fa50 56f0 a1aa 19c0 60ad f932 0ce4
00000080: 582b bc45 a4b3 c8be 4f3b 074b ebed d959
00000090: 0eff 4144 0cba adb3 d8cf e719 2029 cbc7
000000a0: dd61 37ef ddcc 3b3b 7540 2814 bde3 33ce
000000b0: 404c 994a bfe9 45ec 1b9c 3f12 b5de 6027
000000c0: 020f fa20 323e fcc5 8d21 4ed5 ecba 1b54
000000d0: 55bd caa9 611d 4772 9643 90ad 623b 2f12
000000e0: af4f d5e3 cf63 3aad 9ab6 1ac9 cc42 6039
000000f0: f3b9 bde3 fc07 e995 fda6 c66e 5f08 4e61

sequential_4/dense_13/MatMul i1 [64, 128] scale=0.0019007369 zero_point=0
-0.10644127 0.045617685 0.04941916 0.011404421 0.14065453 -0.123547904 0.17296706 -0.10834201
0.083632424 -0.07602948 0.05512137 0.09693758 0.030411791 0.060823582 0.028511055 0.09883832
-0.16726485 -0.013305158 -0.1596619 -0.047518425 -0.14635675 0.07222801 -0.09503685 0.07032727
0.0152058955 0.100739054 0.16726485 0.1387538 -0.15586042 0.12925011 0.026610317 -0.05512137
0.10834201 -0.1387538 0.17106633 -0.083632424 -0.047518425 -0.083632424 -0.0076029478 -0.17296706
-0.15015821 0.08173169 -0.15395969 0.100739054 0.15586042 0.0 0.12734938 -0.104540534
-0.026610317 -0.06272432 0.15586042 -0.10644127 0.09123537 -0.13305159 -0.017106632 -0.028511055
0.083632424 -0.047518425 0.100739054 -0.07793021 0.17106633 0.1596619 -0.01900737 0.0076029478
-0.0038014739 -0.09123537 -0.15395969 -0.119746424 -0.02470958 -0.07983095 -0.09313611 0.16916558
-0.14255527 -0.03801474 -0.1387538 -0.14255527 -0.10644127 -0.15776117 -0.05512137 0.032312527
0.032312527 0.058922846 -0.028511055 0.14065453 0.08933464 -0.10644127 -0.01900737 -0.06272432
0.07032727 -0.051319897 -0.11214348 0.10644127 -0.09503685 0.14635675 -0.047518425 0.11784569
0.032312527 0.028511055 0.064625055 0.17676854 -0.009503685 0.053220633 0.041816212 -0.1748678
0.123547904 0.16726485 -0.12734938 0.064625055 0.041816212 -0.123547904 0.123547904 0.14635675
-0.16726485 -0.08933464 -0.0019007369 -0.026610317 0.051319897 -0.04941916 -0.15015821 -0.15776117
0.119746424 -0.10644127 -0.041816212 0.13115084 0.1748678 -0.15395969 -0.0019007369 -0.07983095
0.060823582 -0.085533164 -0.05702211 -0.07983095 0.09123537 0.11404422 -0.039915476 -0.0038014739
-0.07032727 -0.041816212 0.13305159 0.09503685 0.09693758 -0.16156264 -0.06272432 0.11024274
-0.020908106 0.100739054 0.13305159 -0.026610317 -0.0152058955 -0.13305159 -0.09503685 -0.02470958
0.034213264 -0.15205896 0.11024274 0.100739054 0.13495232 0.06272432 0.030411791 0.047518425
-0.051319897 0.12544864 -0.12925011 0.09123537 0.14255527 -0.09503685 -0.0152058955 -0.041816212
-0.020908106 0.14825748 -0.07793021 0.12544864 -0.121647164 0.11404422 -0.017106632 -0.060823582
-0.11024274 -0.12544864 -0.07032727 0.07602948 0.058922846 -0.14825748 0.0 0.08173169
-0.119746424 0.07793021 -0.12925011 -0.022808842 0.14445601 0.14445601 -0.09123537 -0.11404422
-0.034213264 0.10644127 -0.11024274 -0.085533164 -0.13495232 0.13305159 -0.15395969 0.041816212
-0.05702211 0.15395969 -0.14445601 0.0 -0.08173169 -0.07222801 0.009503685 0.12544864
0.07412874 -0.11404422 0.009503685 0.0874339 0.034213264 -0.060823582 -0.13115084 -0.047518425
-0.18627222 0.017106632 -0.121647164 0.022808842 -0.10834201 0.085533164 -0.10834201 0.03801474
0.15776117 0.08933464 0.04371695 0.04371695 0.15586042 0.1387538 -0.07793021 0.1387538
-0.09693758 -0.034213264 0.060823582 -0.13115084 -0.026610317 -0.14825748 -0.07602948 0.15586042
0.026610317 -0.10644127 0.13685305 -0.07983095 -0.083632424 -0.15586042 -0.047518425 0.11214348
-0.066525795 0.11214348 -0.09123537 0.04371695 0.10834201 0.09503685 -0.11024274 -0.12544864
00000000: c818 1a06 4abf 5bc7 2cd8 1d33 1020 0f34
00000010: a8f9 ace7 b326 ce25 0835 5849 ae44 0ee3
00000020: 39b7 5ad4 e7d4 fca5 b12b af35 5200 43c9
00000030: f2df 52c8 30ba f7f1 2ce7 35d7 5a54 f604
00000040: fed0 afc1 f3d6 cf59 b5ec b7b5 c8ad e311
00000050: 111f f14a 2fc8 f6df 25e5 c538 ce4d e73e
00000060: 110f 225d fb1c 16a4 4158 bd22 16bf 414d
00000070: a8d1 fff2 1be6 b1ad 3fc8 ea45 5caf ffd6
00000080: 20d3 e2d6 303c ebfe dbea 4632 33ab df3a
00000090: f535 46f2 f8ba cef3 12b0 3a35 4721 1019
000000a0: e542 bc30 4bce f8ea f54e d742 c03c f7e0
000000b0: c6be db28 1fb2 002b c129 bcf4 4c4c d0c4
000000c0: ee38 c6d3 b946 af16 e251 b400 d5da 0542
000000d0: 27c4 052e 12e0 bbe7 9e09 c00c c72d c714
000000e0: 532f 1717 5249 d749 cdee 20bb f2b2 d852
000000f0: 0ec8 48d6 d4ae e73b dd3b d017 3932 c6be

sequential_4/dense_14/MatMul f4 [1, 64]
0.21393126 -0.18405756 -0.14289267 -0.21293761 -0.2389328 0.28677332 -0.07870699 0.11548948
0.06442931 -0.12269263 0.21738563 0.03587623 -0.26693493 -0.14652799 0.16527057 0.08689037
-0.12902306 -0.25878817 0.21413898 0.25417447 -0.018092012 -0.019756448 0.08929138 -0.1658883
-0.24446821 -0.2787977 0.017712789 -0.0031703662 -0.26981688 0.14385718 -0.2734335 0.06161187
-0.23131032 -0.113731064 -0.03655696 0.20494182 0.0014890134 0.28586182 0.047855347 0.2966653
-0.2254132 -0.2989943 0.27969962 0.22270504 -0.008339703 -0.1016878 0.23557295 0.29602787
0.16645163 0.03290674 -0.016852187 0.08037462 -0.14005682 0.30116212 0.08622979 -0.28053743
-0.15536213 -0.22361752 -0.20672713 0.00801903 -0.26541126 0.2161262 -0.14644787 -0.00040378023
00000000: cc10 5b3e 9679 3cbe 7552 12be 510c 5abe
00000010: cdaa 74be f4d3 923e 2131 a1bd c085 ec3d
00000020: 84f3 833d 4646 fbbd 579a 5e3e f4f2 123d
00000030: b2ab 88be 6f0b 16be b03c 293e 94f3 b13d
00000040: 9f1e 04be e27f 84be 4047 5b3e 2823 823e
00000050: b335 94bc 46d8 a1bc 66de b63d 9fde 29be
00000060: e055 7abe 92be 8ebe 691a 913c ebc5 4fbb
00000070: 7025 8abe 4c4f 133e 7aff 8bbe ba5c 7c3d
00000080: 9ddc 6cbe d5eb e8bd c0bc 15bd 45dc 513e
00000090: 002b c33a 7b5c 923e f803 443d 84e4 973e
000000a0: b8d2 66be c815 99be ca34 8f3e ca0c 643e
000000b0: 40a3 08bc b141 d0bd 093a 713e f790 973e
000000c0: 4c72 2a3e 38c9 063d 990d 8abc 739b a43d
000000d0: 0e6b 0fbe ec31 9a3e 3e99 b03d 9aa2 8fbe
000000e0: 4017 1fbe fefb 64be 47b0 53be 4062 033c
000000f0: fce3 87be 3050 5d3e 6ef6 15be 77b2 d3b9
